checkpoint.pth (torch_old, 21679 bytes, 8 tensors)

net.0.weight f4 [64, 37]
0.044337142 -0.06791617 -0.10165601 -0.06003002 -0.15572171 0.15414643 -0.17069696 0.11987939
0.00053416187 0.002726592 -0.10357173 -0.092126176 -0.095127925 -0.22791025 -0.033416796 -0.007899515
-0.0040471 0.12683193 -0.12811136 -0.13932 0.07117999 0.0030048864 0.040461276 0.0678084
0.09724374 -0.20779988 0.12190072 -0.027835645 0.029169878 -0.2337837 -0.21722542 0.09949538
0.0064798957 -0.12366427 -0.05732645 -0.10495461 -0.26581702 0.1707949 0.094087414 0.081124656
0.027427273 -0.038398232 0.2292175 -0.44879004 -0.43961826 -0.5248575 -1.7346895 0.06436868
-0.010351363 0.023476036 0.13135202 0.05538808 0.04814937 0.022477575 0.09216003 0.10562513
0.16636118 -0.0092021115 -0.103003725 -0.13749564 -0.04189896 0.103706434 -0.18267116 0.24182443
0.05206821 0.13546409 0.39614168 0.057164162 0.19919755 0.012617004 0.07247448 0.003594909
0.019773824 -0.015511897 0.1676154 -0.12035211 0.2586339 -0.25008726 -0.15738972 -0.37512413
-0.17229806 0.2255872 0.1705201 -0.060011845 -0.14012177 0.0229316 0.03983079 0.13666636
-0.14777413 -0.23726389 0.111447774 0.14988527 0.23144381 -0.12843648 -0.19966547 -0.07024416
-0.087585725 0.2465213 -0.050914224 -0.437078 0.05347172 0.2862159 0.18590209 -0.42941898
-0.12767273 0.019083763 -0.17905371 -0.12006753 -0.21433106 0.041289076 0.009997938 0.08492087
0.089467466 0.06417248 0.05411549 -0.07537596 0.01034638 0.01669234 0.0098345475 0.04777834
-0.0033826446 -0.106523104 0.11145758 0.091955885 0.0944107 0.16378969 -0.063461006 0.04488513
-0.033539493 -0.071265265 -0.027628142 0.32860097 -0.6455072 -0.39835888 -0.48306307 -1.9065808
-0.059381057 0.0016031859 0.14795266 0.15403834 0.10492555 -0.12204869 0.16873387 0.161192
0.20555948 0.30277762 -0.008806281 -0.003906877 -0.14339742 -0.12620261 -0.083235465 -0.06666342
0.004780123 -0.012100233 0.01818329 0.07124747 0.02720565 0.0059587196 0.3127545 -0.47088796
-0.54857117 -0.5276635 -2.1024764 -0.0350757 -0.021710528 -0.042961195 0.00735389 0.056568865
-0.10789097 0.026860263 0.021939589 0.13804606 0.1809287 -0.06479967 0.060342688 0.05280033
0.045271814 0.06110952 -0.10660397 0.053309 0.108321376 0.144975 0.18748374 -0.0070908545
-0.003883301 0.067723565 -0.0051278872 0.10117058 -0.02277957 0.075146414 0.035179723 0.30508035
0.15093784 -0.2514501 -1.1047367 -0.1119701 0.119060665 0.0131115215 -0.064403154 -0.23188153
-0.010480098 0.12306172 -0.061546873 0.100909576 -0.32795817 0.12130575 0.043188516 0.18463959
0.064151324 -0.14724113 -0.04590658 0.10760679 0.017341182 -0.08585802 -0.6241068 0.013691206
0.060690805 0.13589063 -0.07364779 -0.8379854 0.0024827216 0.00516143 -0.04762124 -0.056501992
-0.098128416 -0.7136124 -0.5031881 -0.39712685 -0.24100484 -0.000874067 -0.06442155 0.21250433
0.011299241 0.17776139 -0.28045753 -0.14199401 0.03928299 -0.2592983 -0.36249524 0.093116365
0.035059705 -0.052701034 -0.050718166 -0.2924106 -0.0019288416 -0.28646478 -0.013846671 -0.034218278
-0.30479237 -0.4343448 -0.16780296 -0.21193878 0.16685443 -0.20759694 -0.14058864 -0.21835703
00000000: dd9a 353d a217 8bbd 0731 d0bd 0ae2 75bd
00000010: 8375 1fbe 90d8 1d3e 2fcb 2ebe 5383 f53d
00000020: ff06 0c3a 9fb0 323b 6a1d d4bd a6ac bcbd
00000030: 6ed2 c2bd 4e61 69be 0de0 08bd f86c 01bc
00000040: 899d 84bb 3be0 013e a02f 03be e7a9 0ebe
00000050: d1c6 913d a1ed 443b b9ba 253d 21df 8a3d
00000060: ba27 c73d 7ec9 54be 16a7 f93d 9407 e4bc
00000070: abf5 ee3c ff64 6fbe 5770 5ebe 3cc4 cb3d
00000080: 4e55 d43b b143 fdbd 24cf 6abd 71f2 d6bd
00000090: 2b19 88be dce4 2e3e e7b0 c03d af24 a63d
000000a0: 29af e03c 7747 1dbd feb7 6a3e cfc7 e5be
000000b0: a515 e1be 105d 06bf 4e0a debf bad3 833d
000000c0: c398 29bc d150 c03c 2581 063e 9dde 623d
000000d0: 4638 453d e422 b83c 66be bc3d fd51 d83d
000000e0: 965a 2a3e 74c4 16bc 9ef3 d2bd a8cb 0cbe
000000f0: 3e9e 2bbd 0a64 d43d 260e 3bbe d3a0 773e
00000100: 7a45 553d 19b7 0a3e 15d3 ca3e f824 6a3d
00000110: 71fa 4b3e 8db7 4e3c 806d 943d 9198 6b3b
00000120: b7fc a13c 9d25 7ebc 5fa3 2b3e 2b7b f6bd
00000130: aa6b 843e 700b 80be c52a 21be 4510 c0be
00000140: e76e 30be 5500 673e d29c 2e3e fbce 75bd
00000150: 157c 0fbe 0ddb bb3c 9c25 233d 44f2 0b3e
00000160: 1a52 17be 4ef5 72be bb3e e43d 867b 193e
00000170: 9bff 6c3e da84 03be 1b75 4cbe 2cdc 8fbd
00000180: 2560 b3bd 1470 7c3e 6f8b 50bd b0c8 dfbe
00000190: 2a05 5b3d e48a 923e 1e5d 3e3e cedc dbbe
000001a0: a4bc 02be 8d55 9c3c db59 37be f7e5 f5bd
000001b0: 9a79 5bbe bc1e 293d 64ce 233c feea ad3d
000001c0: b83a b73d dc6c 833d 34a8 5d3d b65e 9abd
000001d0: dd83 293c 60be 883c 1521 213c 38b3 433d
000001e0: 5caf 5dbb c928 dabd df43 e43d 5e53 bc3d
000001f0: 665a c13d 7cb8 273e d8f7 81bd 78d9 373d
00000200: b560 09bd 86f3 91bd 6a54 e2bc 633e a83e
00000210: f63f 25bf b2f5 cbbe 0b54 f7be d70a f4bf
00000220: 8d39 73bd fe21 d23a e780 173e 3abc 1d3e
00000230: 35e3 d63d aaf4 f9bd 92c8 2c3e 840f 253e
00000240: 2f7e 523e ab05 9b3e 3848 10bc 4205 80bb
00000250: c6d6 12be 423b 01be 5b77 aabd d586 88bd
00000260: 94a2 9c3b 0e40 46bc 1ff5 943c 32ea 913d
00000270: 62de de3c 5d41 c33b 5c21 a03e 3a18 f1be
00000280: 296f 0cbf f514 07bf f98e 06c0 8aab 0fbd
00000290: 47da b1bc 14f8 2fbd e7f8 f03b c1b4 673d
000002a0: f1f5 dcbd 0e0a dc3c a7ba b33c f25b 0d3e
000002b0: 6045 393e b0b5 84bd e529 773d 2945 583d
000002c0: f06e 393d fa4d 7a3d 2f53 dabd 8a5a 5a3d
000002d0: 99d7 dd3d 5474 143e bdfb 3f3e 665a e8bb
000002e0: fb7e 7ebb a7b2 8a3d d607 a8bb 8532 cf3d
000002f0: 399c babc 5de6 993d 9d18 103d 7e33 9c3e
00000300: 738f 1a3e 11be 80be 0368 8dbf 9450 e5bd
00000310: 14d6 f33d b5d1 563c cde5 83bd 5a72 6dbe
00000320: b8b4 2bbc c807 fc3d 9318 7cbd aea9 ce3d
00000330: 22ea a7be 266f f83d 71e6 303d 2912 3d3e
00000340: c561 833d 61c6 16be 8a08 3cbd f360 dc3d
00000350: 180f 8e3c 54d6 afbd 77c5 1fbf 1551 603c
00000360: ec96 783d ea26 0b3e a7d4 96bd 3686 56bf
00000370: 28b5 223b 3721 a93b 7d0e 43bd a26e 67bd
00000380: 8df7 c8bd 4daf 36bf efd0 00bf 3654 cbbe
00000390: f9c9 76be a521 65ba 72ef 83bd bc9a 593e
000003a0: 7420 393c 1507 363e 2198 8fbe e166 11be
000003b0: 33e7 203d bfc2 84be fa98 b9be cbb3 be3d
000003c0: c49a 0f3d 0add 57bd dabd 4fbd d8b6 95be
000003d0: 2fd1 fcba 83ab 92be 26dd 62bc 7728 0cbd
000003e0: bf0d 9cbe 7162 debe 8ad4 2bbe 7b06 59be
000003f0: e3db 2a3e 4b94 54be 78f6 0fbe fc98 5fbe

net.0.bias f4 [64]
0.016538873 4.6735804e-05 -0.13583302 -0.07927903 0.14750358 0.06184982 -0.20611699 0.053071983
-0.031349685 -0.26932117 0.26236758 0.22669412 0.11962584 0.19826484 -0.070343204 -0.11553717
0.02065368 -0.13829784 0.007489129 -0.13279478 -0.087216325 0.045815457 0.017162386 -0.07960945
-0.12942229 0.15708145 -0.031410992 -0.11447635 0.23005599 0.106182635 -0.22966945 -0.22458453
0.31849828 -0.07007603 -0.24233426 0.13421446 -0.029394796 0.1798407 -0.0010128274 -0.14386916
-0.21208568 -0.07592942 -0.045258123 0.0033472313 -0.021097591 -0.08920029 0.17518052 -0.20176017
-0.1575953 -0.006992858 -0.14436868 0.21423164 -0.08652682 0.039626982 -0.08295501 -0.028418195
0.0034410497 -0.046433043 -0.1637774 -0.04664448 -0.008565137 0.055650547 0.12065496 -0.029957375
00000000: 887c 873c 3006 4438 d017 0bbe 0b5d a2bd
00000010: 2e0b 173e 3d56 7d3d 5510 53be 0262 593d
00000020: 8768 00bd 77e4 89be 0b55 863e 8122 683e
00000030: 64fe f43d f005 4b3e 1910 90bd c09e ecbd
00000040: e831 a93c f39d 0dbe 5e67 f53b 5bfb 07be
00000050: 799e b2bd fda8 3b3d 2298 8c3c 480a a3bd
00000060: 4787 04be f6d9 203e d0a8 00bd 9472 eabd
00000070: cc93 6b3e 4876 d93d 782e 6bbe 7df9 65be
00000080: 3512 a33e 0684 8fbd 7926 78be 846f 093e
00000090: 5bcd f0bc 2928 383e d9c0 84ba 7052 13be
000000a0: fd2c 59be e280 9bbd 9560 39bd 395d 5b3b
000000b0: dbd4 acbc a4ae b6bd 8662 333e 389a 4ebe
000000c0: aa60 21be 5824 e5bb 62d5 13be 8a5f 5b3e
000000d0: f934 b1bd e74f 223d 51e4 a9bd 46cd e8bc
000000e0: 3c83 613b 9330 3ebd 43b5 27be 480e 3fbd
000000f0: ca54 0cbc d4f1 633d f319 f73d 2b69 f5bc

net.2.weight f4 [32, 64]
0.015851358 0.23335403 0.032817207 0.43348983 0.6185298 -0.12205651 -0.2502604 0.046328593
0.050846934 0.01874264 0.047508195 -0.101004705 -0.25726214 0.10308551 -0.029546807 -0.031858847
0.013789383 -0.0610053 0.026788311 0.09691722 0.0039967783 -0.19829586 0.14557824 0.11669622
0.068469614 0.017318854 0.42244947 -0.031621035 0.5148639 0.0809802 0.19007 -0.17224252
-0.19308774 0.034368634 0.13599204 0.10876741 -0.14353627 0.1561781 0.12556316 -0.19905663
-0.05205587 0.11296664 0.17881493 -0.02381845 0.21086605 -0.005920016 -0.108716756 -0.011552758
-0.16161169 0.05167278 -0.101306 0.27803132 -0.07442484 0.04862502 0.018440321 0.050163884
-0.050082386 0.4807013 0.026371298 -0.105867304 0.4120993 0.13949227 0.017548852 0.006992386
0.15425591 0.06467168 0.2478342 0.706329 -0.060927182 0.101793475 -0.2334271 0.00868973
-0.010354175 -0.0011725115 0.12333956 0.168505 -0.10165947 0.1787306 0.09331959 -0.13383174
0.081314266 -0.036575552 -0.035371684 -0.055473726 0.057098445 -0.13351685 0.05960997 0.051132843
-0.181602 0.43371868 -0.416996 -0.07172328 0.20931154 0.16339248 -0.3648895 -0.39702085
-0.25246808 -0.008971272 -0.010047023 -0.076844655 -0.011409639 0.19998933 0.43373114 -0.048793584
0.23075084 0.21364719 0.02753559 -0.12480367 -0.10951085 -0.15465929 -0.093741246 0.047692727
0.0039573624 -0.2603661 0.06662298 0.30475006 -0.0019931893 0.072266206 -0.10553793 0.04606459
-0.1895116 -0.09822304 0.16548492 -0.024104342 -0.47513562 0.14895923 0.100804776 -0.38483307
-0.1267479 -0.0074628238 0.08999022 0.25960407 0.3237151 -0.1146032 -0.12155122 0.05650044
0.046860207 -0.11981569 0.18144046 0.016260203 0.18688884 0.1273529 -0.04195225 -0.017560018
-0.03368254 -0.09028856 0.22231469 -0.02646757 -0.13823476 0.11130941 0.011713855 0.16444756
0.04712901 0.14222443 0.23196572 -0.19906713 0.10055928 0.010856758 0.10150779 -0.23020454
-0.12455806 0.06846304 -0.07993816 0.07056856 0.25451478 0.19943276 0.050235275 0.024515403
0.11722368 0.02163147 0.00737846 -0.07089223 0.2333956 0.0150036495 0.15698141 -0.15288271
-0.052205123 0.106589675 0.23682007 0.1358743 -0.12329055 0.34207928 -0.09468136 -0.041202765
-0.4623273 0.15288955 0.27507573 0.065046296 0.27776372 0.039974947 0.27177256 0.030492002
-0.2895803 -0.067079455 -0.16020678 -0.0869221 -0.24651635 -0.34724653 -0.13825731 -0.10865242
-0.06280391 0.030416839 -0.08174229 0.12625349 0.11811908 0.086451724 0.044413835 -0.25048336
-0.026348412 -0.11627374 0.01885886 -0.23307537 -0.17343502 0.016975977 0.1263241 0.13246337
0.5198588 0.22128868 0.63377714 0.22302312 0.51452446 0.07329893 -0.02987895 0.2553894
0.041548498 0.002234506 0.18562333 0.027438555 0.053923834 0.15046579 0.12276305 0.09481494
-0.027256196 -0.3049178 0.002762514 -0.13903753 0.06814286 0.37154186 0.009756868 0.002458511
0.07203216 -0.031359516 -0.11871304 0.34398624 0.024575423 -0.02699233 0.08333267 -0.20467833
-0.15621352 0.36429918 0.051663697 0.2191433 0.5810449 -0.087368004 -0.047595948 0.48534948
00000000: b5da 813c 5cf4 6e3e 566b 063d 61f2 dd3e
00000010: f857 1e3f c3f8 f9bd 2222 80be 0dc3 3d3d
00000020: e044 503d 2a8a 993c f497 423d 8edb cebd
00000030: ddb7 83be 7f1e d33d 250c f2bc 6c7e 02bd
00000040: ddec 613c b2e0 79bd 2973 db3c 897c c63d
00000050: 68f7 823b 120e 4bbe 7612 153e 6efe ee3d
00000060: cc39 8c3d 45e0 8d3c 4c4b d83e 0f85 01bd
00000070: 1fce 033f f2d8 a53d b6a1 423e 5860 30be
00000080: cbb8 45be 20c6 0c3d 7f41 0b3e 73c1 de3d
00000090: 2cfb 12be 27ed 1f3e a193 003e 80d5 4bbe
000000a0: 8938 55bd 0e5b e73d 431b 373e e91e c3bc
000000b0: 45ed 573e b2fc c1bb e4a6 debd c747 3dbc
000000c0: 897d 25be d6a6 533d 8579 cfbd 1f5a 8e3e
000000d0: 0d6c 98bd 072b 473d 2810 973c a578 4d3d
000000e0: 3023 4dbd 7b1e f63e 9f08 d83c f5d0 d8bd
000000f0: aefe d23e 10d7 0e3e 9cc2 8f3c 6320 e53b
00000100: 43f5 1d3e 9672 843d 40c8 7d3e fad1 343f
00000110: c88e 79bd 1979 d03d 8407 6fbe 5f5f 0e3c
00000120: 8fa4 29bc f5ae 99ba 7499 fc3d 938c 2c3e
00000130: d732 d0bd 2805 373e 571e bf3d 300b 09be
00000140: 1888 a63d 3fd0 15bd e6e1 10bd 6b38 63bd
00000150: 0fe0 693d a4b8 08be 9529 743d ac70 513d
00000160: e0f5 39be 6010 de3e 8080 d5be a8e3 92bd
00000170: c455 563e 5c50 273e ccd2 babe 5146 cbbe
00000180: 7f43 81be 3efc 12bc 459c 24bc bb60 9dbd
00000190: 7fef 3abc 01ca 4c3e 0212 de3e c8db 47bd
000001a0: f349 6c3e 54c6 5a3e 5192 e13c 1199 ffbd
000001b0: 3947 e0bd 015f 1ebe 69fb bfbd 7359 433d
000001c0: c3ac 813b b54e 85be a171 883d 3308 9c3e
000001d0: 2ba0 02bb 4e00 943d 4524 d8bd 39ae 3c3d
000001e0: 540f 42be 2929 c9bd e174 293e 7876 c5bc
000001f0: fa44 f3be c588 183e bc72 ce3d d708 c5be
00000200: 34ca 01be b48a f4bb cb4c b83d d3ea 843e
00000210: fcbd a53e 15b5 eabd d9ef f8bd 016d 673d
00000220: 7df0 3f3d ee61 f5bd 87cb 393e 1e34 853c
00000230: ca5f 3f3e cc68 023e 1fd6 2bbd 07da 8fbc
00000240: b4f6 09bd 35e9 b8bd 76a6 633e 84d2 d8bc
00000250: 6a8d 0dbe 30f6 e33d 78eb 3f3c f164 283e
00000260: 590a 413d 48a3 113e 6c88 6d3e 41d8 4bbe
00000270: 06f2 cd3d 8be0 313c 51e3 cf3d bdba 6bbe
00000280: 4c18 ffbd 5a36 8c3d 9eb6 a3bd 4086 903d
00000290: c34f 823e 1a38 4c3e 81c3 4d3d 87d4 c83c
000002a0: f812 f03d 7b34 b13c 02c7 f13b f22f 91bd
000002b0: 42ff 6e3e ded1 753c bcbf 203e 498d 1cbe
000002c0: 0ad5 55bd b04b da3d f680 723e a222 0b3e
000002d0: c27f fcbd 0425 af3e 4de8 c1bd 3bc4 28bd
000002e0: 2ab6 ecbe 148f 1c3e bad6 8c3e fe36 853d
000002f0: 0c37 8e3e c5bc 233d c625 8b3e 5dca f93c
00000300: de43 94be f460 89bd 3f0d 24be 3704 b2bd
00000310: c86e 7cbe 4cca b1be 5393 0dbe 2985 debd
00000320: 569f 80bd bc2c f93c 8068 a7bd 9848 013e
00000330: 6be8 f13d 9a0d b13d 48eb 353d 5b3f 80be
00000340: a0d8 d7bc ed20 eebd e57d 9a3c 4fab 6ebe
00000350: f398 31be 3411 8b3c 1b5b 013e 7aa4 073e
00000360: 7715 053f 8099 623e 383f 223f 2c60 643e
00000370: e0b7 033f c01d 963d b3c4 f4bc 66c2 823e
00000380: c22e 2a3d ca70 123b 0b14 3e3e d2c6 e03c
00000390: 3ddf 5c3d b413 1a3e 326b fb3d 562e c23d
000003a0: 6348 dfbc 301e 9cbe 4b0b 353b db5f 0ebe
000003b0: 7c8e 8b3d bc3a be3e 45db 1f3c f81e 213b
000003c0: 9985 933d d672 00bd d31f f3bd f71e b03e
000003d0: 6652 c93c 051f ddbc 52aa aa3d 3297 51be
000003e0: 70f6 1fbe 6c85 ba3e 509d 533d 1a67 603e
000003f0: 5cbf 143f ffed b2bd f8f3 42bd ba7f f83e

net.2.bias f4 [32]
0.20772032 0.07101323 0.25232548 0.11765606 0.26364583 0.2969809 0.1330972 -0.055725727
0.37602612 0.17026488 0.38328153 0.08103493 0.2805638 0.060788725 -0.020480247 0.047586035
-0.08656398 0.056268923 -0.044703677 -0.023496915 0.07469495 0.08206408 0.1720747 -0.019808961
0.037028626 -0.13778839 0.2446919 0.1628973 0.13223553 0.027906423 0.08202957 0.225009
00000000: a3b4 543e 626f 913d ce30 813e a9f5 f03d
00000010: 96fc 863e e10d 983e a24a 083e a940 64bd
00000020: 7f86 c03e eb59 2e3e 7a3d c43e a4f5 a53d
00000030: 0fa6 8f3e 99fd 783d 31c6 a7bc 93e9 423d
00000040: 7548 b1bd 3e7a 663d 341b 37bd 9a7c c0bc
00000050: aaf9 983d 3611 a83d 5a34 303e 6746 a2bc
00000060: 54ab 173d 6618 0dbe 8390 7a3e 8dce 263e
00000070: c068 073e 039c e43c 1fff a73d c268 663e

net.4.weight f4 [16, 32]
0.15771383 -0.43240497 0.05899856 0.006829099 -0.15425633 0.28340963 0.32454872 0.73446476
0.015452842 -0.07426319 0.21121079 0.22394997 0.15829432 0.11290046 -0.05548282 -0.14860952
-0.13795985 0.10302571 -0.5567022 -0.17454544 0.16864644 0.23667555 0.3144934 -0.02181767
0.03718766 -0.065215625 -0.20230497 0.07570164 -0.14276978 -0.30396122 -0.20545988 0.2686131
-0.14613992 0.07267482 -0.14706813 -0.089249894 0.034567684 0.01724403 0.1295765 -0.016090248
-0.098525085 -0.07310923 -0.008545396 -0.13255227 -0.14528471 -0.075636245 -0.03278528 -0.11938457
-0.10091001 0.12621771 0.16336267 -0.07278651 -0.16753097 -0.083410695 0.06563964 0.057371974
-0.05480072 -0.15569067 -0.053154632 -0.039526343 0.101799116 -0.10266682 0.091810435 0.0245222
-0.0005329786 -0.4113622 0.14066033 -0.1444293 0.16864875 -0.15429406 -0.3232581 -0.083341315
-0.14121231 -0.19106162 -0.13981551 0.13192089 -0.27014753 0.083618 -0.32845408 0.54065675
-0.110245384 0.021622539 0.16784531 0.018893218 -0.44953907 -0.37474567 0.01523811 -0.16575918
0.0613349 -0.13240214 -0.4316163 -0.07305701 0.5102037 0.18232913 -0.122714035 0.18117832
0.109602965 0.30785078 0.03658342 0.17108202 0.14526637 -0.2915257 0.25609633 0.26581657
-0.17852108 -0.060644817 0.17618842 0.063229986 0.11718839 0.006287737 -0.0633969 -0.18096006
0.013032377 0.026743274 -0.34160078 0.2830081 -0.603228 0.22500913 0.6089309 0.0064660446
0.12936987 0.10800332 0.06333441 -0.1090097 -0.15177 -0.0416588 -0.13808556 0.06976242
0.3789032 0.2750478 0.3664304 0.18445545 0.18842566 0.25848973 0.22588696 0.59750575
0.29888022 0.29082635 0.2259431 0.33663172 0.04399809 -0.16252397 0.28037822 -0.32560703
-0.11617437 -0.018732613 -0.20789933 0.19002049 0.03136059 0.378052 0.36419362 -0.049647316
-0.033599667 -0.013080577 0.23543754 0.2037492 0.081064954 0.14738657 -0.50801265 0.22535773
-0.00046632363 -0.41761392 0.00018109052 0.22223015 0.27261767 0.11906451 0.0069046207 0.20819913
0.14139533 -0.16577995 0.055424813 -0.35931635 -0.31128106 -0.04448927 -0.011134104 0.4876882
0.030448973 -0.0398292 0.5736105 0.16056561 -0.083039016 -0.37526837 -0.21176732 -0.18876871
-0.049887124 -0.16102998 -0.6107915 -0.37093642 0.16737534 -0.05708304 0.14026543 0.017302081
-0.1194645 0.13062488 -0.054817494 -0.16548191 -0.04041099 0.07149691 -0.18752445 -0.029015433
0.0560758 -0.08473702 0.00023343509 -0.06928282 -0.1344019 0.13844101 -0.12551989 -0.0020724833
0.058877215 -0.09879131 0.08535515 -0.14680578 0.15297562 0.07872908 -0.025026962 -0.1470498
0.00545159 0.062704325 -0.11106651 -0.03809487 -0.17617148 -0.19250935 -0.01919876 0.13260551
-0.1116156 -0.17216083 -0.15661292 0.0014743677 -0.06752705 -0.100396775 0.25092444 0.29575515
-0.21872263 0.034232456 0.0367761 -0.29216123 0.034290977 -0.054829463 -0.2882377 0.000929626
0.10089947 -0.022906033 -0.08838905 0.11225698 -0.13035586 -0.18556048 -0.023112541 -0.037238576
-0.00060792366 0.14243539 0.08241086 -0.391295 -0.10694087 -0.21891855 0.30388668 -0.039484456
00000000: bc7f 213e 2f64 ddbe 79a8 713d a2c6 df3b
00000010: 5ff5 1dbe 111b 913e 402b a63e e205 3c3f
00000020: eb2d 7d3c 4d17 98bd a447 583e 2453 653e
00000030: e817 223e 5b38 e73d f441 63bd 182d 18be
00000040: 5945 0dbe 25ff d23d 0984 0ebf 0abc 32be
00000050: a7b1 2c3e 135b 723e 4705 a13e f8ba b2bc
00000060: 1652 183d c58f 85bd 0929 4fbe 7609 9b3d
00000070: 3e32 12be cea0 9bbe 1364 52be a887 893e
00000080: b4a5 15be 89d6 943d 0799 16be a6c8 b6bd
00000090: d896 0d3d 5a43 8d3c b4af 043e b2cf 83bc
000000a0: 85c7 c9bd 4bba 95bd fd01 0cbc c8bb 07be
000000b0: 84c5 14be 2de7 9abd dc49 06bd e67f f4bd
000000c0: e8a9 cebd 373f 013e 8b48 273e 1811 95bd
000000d0: 3d8d 2bbe 3ad3 aabd 136e 863d e0fe 6a3d
000000e0: b876 60bd 606d 1fbe acb8 59bd 60e6 21bd
000000f0: 0e7c d03d fb42 d2bd 1c07 bc3d c8e2 c83c
00000100: 97b7 0bba 119e d2be 4309 103e 46e5 13be
00000110: 42b2 2c3e 43ff 1dbe 1682 a5be daae aabd
00000120: f699 10be a8a5 43be cc2b 0fbe 4516 073e
00000130: c750 8abe ea3f ab3d 222b a8be 7b68 0a3f
00000140: 55c8 e1bd c021 b13c a4df 2b3e f3c5 9a3c
00000150: fc29 e6be aade bfbe 44a9 793c c6bc 29be
00000160: 4e3a 7b3d 6d94 07be d0fc dcbe ea9e 95bd
00000170: b69c 023f 7db4 3a3e 7f51 fbbd cf86 393e
00000180: 8577 e03d 9e9e 9d3e 7fd8 153d 2030 2f3e
00000190: b5c0 143e db42 95be 0f1f 833e 1c19 883e
000001a0: 3bce 36be b366 78bd bd6a 343e b97e 813d
000001b0: 7700 f03d 5c09 ce3b 3cd6 81bd 984d 39be
000001c0: c085 553c b614 db3c 4ce6 aebe 70e6 903e
000001d0: 266d 1abf cb68 663e e5e2 1b3f 1de1 d33b
000001e0: 8979 043e d830 dd3d 79b5 813d 7a40 dfbd
000001f0: 9869 1bbe 6ba2 2abd 4d66 0dbe 9adf 8e3d
00000200: 9aff c13e 11d3 8c3e c49c bb3e e4e1 3c3e
00000210: a8f2 403e c458 843e e94e 673e 23f6 183f
00000220: d406 993e 31e7 943e a15d 673e fe5a ac3e
00000230: 5737 343d af6c 26be bc8d 8f3e f7b5 a6be
00000240: d4ec edbd 2375 99bc 90e3 54be bb94 423e
00000250: f673 003d 0890 c13e 9677 ba3e fc5a 4bbd
00000260: ce9f 09bd eb4f 56bc 8a16 713e a1a3 503e
00000270: 6205 a63d 81ec 163e 1e0d 02bf 2dc4 663e
00000280: e67c f4b9 7ed1 d5be 1ee3 3d39 4d90 633e
00000290: 8b94 8b3e 18d8 f33d 2840 e23b 2732 553e
000002a0: f0c9 103e 38c2 29be 2105 633d 50f8 b7be
000002b0: 3b60 9fbe 613a 36bd d16b 36bc 45b2 f93e
000002c0: 2070 f93c f123 23bd 23d8 123f 506b 243e
000002d0: 5c10 aabd 2d23 c0be 88d9 58be 964c 41be
000002e0: 7156 4cbd 0be5 24be d55c 1cbf 61eb bdbe
000002f0: 7164 2b3e e8cf 69bd bea1 0f3e 18bd 8d3c
00000300: cea9 f4bd 87c2 053e 4f88 60bd 1774 29be
00000310: ff85 25bd f96c 923d 6906 40be c6b1 edbc
00000320: bdaf 653d 9a8a adbd 41c6 7439 27e4 8dbd
00000330: a7a0 09be 7bc3 0d3e 4988 00be 80d2 07bb
00000340: 3c29 713d 1953 cabd aece ae3d 4154 16be
00000350: a4a5 1c3e b63c a13d 5805 cdbc 3994 16be
00000360: 40a3 b23b 206b 803d d776 e3bd 5e09 1cbd
00000370: 4c66 34be 2c21 45be b846 9dbc bdc9 073e
00000380: b896 e4bd ee4a 30be 235f 20be 923f c13a
00000390: 9f4b 8abd d39c cdbd 2b79 803e 386d 973e
000003a0: d3f8 5fbe 5537 0c3d 89a2 163d 2896 95be
000003b0: b274 0c3d dc94 60bd e493 93be 25b2 733a
000003c0: 62a4 ce3d 6fa5 bbbc 5105 b5bd fde6 e53d
000003d0: 027c 05be 9103 3ebe 8356 bdbc 7a87 18bd
000003e0: 115d 1fba 95da 113e 06c7 a83d d157 c8be
000003f0: d103 dbbd 2f2c 60be 0997 9b3e 74ba 21bd

net.4.bias f4 [16]
0.22404814 -0.15920997 0.051545173 0.10033804 0.56354916 0.20506784 -0.16043468 -0.02097581
0.12030169 0.1485485 -0.2054648 0.22045484 0.025243536 -0.13843799 0.16345724 0.229116
00000000: e06c 653e f007 23be 0821 533d 087e cd3d
00000010: c244 103f 4efd 513e fd48 24be 76d5 abbc
00000020: bc60 f63d 191d 183e 5d65 52be eabe 613e
00000030: 88cb ce3c b0c2 0dbe 5661 273e 629d 6a3e

net.6.weight f4 [4, 16]
0.2036936 -0.0951245 0.12916653 0.2410934 0.3695572 -0.5638854 0.124961376 -0.21993054
-0.018431617 0.09361544 -0.40929008 0.2555788 -0.042439293 -0.24513611 0.16825573 0.26931056
0.3082967 0.22906399 0.22203906 0.19768178 0.336019 0.14396186 0.06544727 -0.06146979
0.05085293 -0.15361 -0.35259196 0.15923843 0.060823977 -0.16103691 0.2323172 0.46999815
0.39643267 0.07040526 -0.60913444 0.137671 0.22641765 -0.27173436 0.15958622 -0.2757913
0.38979256 0.07785618 -0.15892339 -0.0027946462 0.049454536 -0.22789365 -0.2317593 0.47992656
0.23243867 0.019376755 -0.06257029 0.07346302 0.34570542 -0.17050916 0.09049441 -0.2746185
0.102250166 -0.22330682 -0.448711 0.36756837 -0.030469807 -0.19195795 -0.32429007 0.13209763
00000000: 0e95 503e a2d0 c2bd 3b44 043e 30e1 763e
00000010: 9a36 bd3e cb5a 10bf c0eb ff3d 7935 61be
00000020: e7fd 96bc 74b9 bf3d 788e d1be 39db 823e
00000030: d3d4 2dbd f604 7bbe 3b4b 2c3e 13e3 893e
00000040: 11d9 9d3e c08f 6a3e 355e 633e 186d 4a3e
00000050: af0a ac3e bd6a 133e 3809 863d bfc7 7bbd
00000060: 294b 503d f14b 1dbe ef86 b4be 660f 233e
00000070: 9022 793d dce6 24be 8fe4 6d3e 99a3 f03e
00000080: 39f9 ca3e a230 903d 3cf0 1bbf a0f9 0c3e
00000090: 07da 673e c420 8bbe 926a 233e 8434 8dbe
000000a0: e492 c73e 1073 9f3d d0bc 22be 6226 37bb
000000b0: d790 4a3d f45c 69be 4f52 6dbe efb8 f53e
000000c0: 6704 6e3e 00bc 9e3c da24 80bd c873 963d
000000d0: 4d00 b13e f499 2ebe 2255 b93d cc9a 8cbe
000000e0: 8968 d13d 8baa 64be 73bd e5be ec31 bc3e
000000f0: d19b f9bc a090 44be 5909 a6be 9a44 073e

net.6.bias f4 [4]
0.20267577 0.29270595 0.3106001 0.060924295
00000000: 3d8a 4f3e 8edd 953e fa06 9f3e c18b 793d
